v0.0.4
def @main(%Mfcc: Tensor[(1, 49, 10), float32]) -> Tensor[(1, 12), float32] {
  %0 = reshape(%Mfcc, newshape=[-1, 490]) /* ty=Tensor[(1, 490), float32] */;
  %1 = reshape(%0, newshape=[-1, 49, 10, 1]) /* ty=Tensor[(1, 49, 10, 1), float32] */;
  %2 = transpose(%1, axes=[0, 3, 1, 2]) /* ty=Tensor[(1, 1, 49, 10), float32] */;
  %3 = nn.conv2d(%2, meta[relay.Constant][0] /* ty=Tensor[(64, 1, 10, 4), float32] */ /* ty=Tensor[(64, 1, 10, 4), float32] */, strides=[2, 2], padding=[4, 1, 5, 1], channels=64, kernel_size=[10, 4]) /* ty=Tensor[(1, 64, 25, 5), float32] */;
  %4 = annotation.stop_fusion(%3) /* ty=Tensor[(1, 64, 25, 5), float32] */;
  %5 = transpose(%4, axes=[0, 2, 3, 1]) /* ty=Tensor[(1, 25, 5, 64), float32] */;
  %6 = add(%5, meta[relay.Constant][1] /* ty=Tensor[(64), float32] */ /* ty=Tensor[(64), float32] */) /* ty=Tensor[(1, 25, 5, 64), float32] */;
  %7 = multiply(%6, meta[relay.Constant][2] /* ty=Tensor[(64), float32] */ /* ty=Tensor[(64), float32] */) /* ty=Tensor[(1, 25, 5, 64), float32] */;
  %8 = add(%7, meta[relay.Constant][3] /* ty=Tensor[(64), float32] */ /* ty=Tensor[(64), float32] */) /* ty=Tensor[(1, 25, 5, 64), float32] */;
  %9 = nn.relu(%8) /* ty=Tensor[(1, 25, 5, 64), float32] */;
  %10 = transpose(%9, axes=[0, 3, 1, 2]) /* ty=Tensor[(1, 64, 25, 5), float32] */;
  %11 = nn.conv2d(%10, meta[relay.Constant][4] /* ty=Tensor[(64, 1, 3, 3), float32] */ /* ty=Tensor[(64, 1, 3, 3), float32] */, padding=[1, 1, 1, 1], groups=64, channels=64, kernel_size=[3, 3]) /* ty=Tensor[(1, 64, 25, 5), float32] */;
  %12 = annotation.stop_fusion(%11) /* ty=Tensor[(1, 64, 25, 5), float32] */;
  %13 = transpose(%12, axes=[0, 2, 3, 1]) /* ty=Tensor[(1, 25, 5, 64), float32] */;
  %14 = add(%13, meta[relay.Constant][5] /* ty=Tensor[(64), float32] */ /* ty=Tensor[(64), float32] */) /* ty=Tensor[(1, 25, 5, 64), float32] */;
  %15 = multiply(%14, meta[relay.Constant][6] /* ty=Tensor[(64), float32] */ /* ty=Tensor[(64), float32] */) /* ty=Tensor[(1, 25, 5, 64), float32] */;
  %16 = add(%15, meta[relay.Constant][7] /* ty=Tensor[(64), float32] */ /* ty=Tensor[(64), float32] */) /* ty=Tensor[(1, 25, 5, 64), float32] */;
  %17 = nn.relu(%16) /* ty=Tensor[(1, 25, 5, 64), float32] */;
  %18 = transpose(%17, axes=[0, 3, 1, 2]) /* ty=Tensor[(1, 64, 25, 5), float32] */;
  %19 = nn.conv2d(%18, meta[relay.Constant][8] /* ty=Tensor[(64, 64, 1, 1), float32] */ /* ty=Tensor[(64, 64, 1, 1), float32] */, padding=[0, 0, 0, 0], channels=64, kernel_size=[1, 1]) /* ty=Tensor[(1, 64, 25, 5), float32] */;
  %20 = annotation.stop_fusion(%19) /* ty=Tensor[(1, 64, 25, 5), float32] */;
  %21 = transpose(%20, axes=[0, 2, 3, 1]) /* ty=Tensor[(1, 25, 5, 64), float32] */;
  %22 = add(%21, meta[relay.Constant][9] /* ty=Tensor[(64), float32] */ /* ty=Tensor[(64), float32] */) /* ty=Tensor[(1, 25, 5, 64), float32] */;
  %23 = multiply(%22, meta[relay.Constant][10] /* ty=Tensor[(64), float32] */ /* ty=Tensor[(64), float32] */) /* ty=Tensor[(1, 25, 5, 64), float32] */;
  %24 = add(%23, meta[relay.Constant][11] /* ty=Tensor[(64), float32] */ /* ty=Tensor[(64), float32] */) /* ty=Tensor[(1, 25, 5, 64), float32] */;
  %25 = nn.relu(%24) /* ty=Tensor[(1, 25, 5, 64), float32] */;
  %26 = transpose(%25, axes=[0, 3, 1, 2]) /* ty=Tensor[(1, 64, 25, 5), float32] */;
  %27 = nn.conv2d(%26, meta[relay.Constant][12] /* ty=Tensor[(64, 1, 3, 3), float32] */ /* ty=Tensor[(64, 1, 3, 3), float32] */, padding=[1, 1, 1, 1], groups=64, channels=64, kernel_size=[3, 3]) /* ty=Tensor[(1, 64, 25, 5), float32] */;
  %28 = annotation.stop_fusion(%27) /* ty=Tensor[(1, 64, 25, 5), float32] */;
  %29 = transpose(%28, axes=[0, 2, 3, 1]) /* ty=Tensor[(1, 25, 5, 64), float32] */;
  %30 = add(%29, meta[relay.Constant][13] /* ty=Tensor[(64), float32] */ /* ty=Tensor[(64), float32] */) /* ty=Tensor[(1, 25, 5, 64), float32] */;
  %31 = multiply(%30, meta[relay.Constant][14] /* ty=Tensor[(64), float32] */ /* ty=Tensor[(64), float32] */) /* ty=Tensor[(1, 25, 5, 64), float32] */;
  %32 = add(%31, meta[relay.Constant][15] /* ty=Tensor[(64), float32] */ /* ty=Tensor[(64), float32] */) /* ty=Tensor[(1, 25, 5, 64), float32] */;
  %33 = nn.relu(%32) /* ty=Tensor[(1, 25, 5, 64), float32] */;
  %34 = transpose(%33, axes=[0, 3, 1, 2]) /* ty=Tensor[(1, 64, 25, 5), float32] */;
  %35 = nn.conv2d(%34, meta[relay.Constant][16] /* ty=Tensor[(64, 64, 1, 1), float32] */ /* ty=Tensor[(64, 64, 1, 1), float32] */, padding=[0, 0, 0, 0], channels=64, kernel_size=[1, 1]) /* ty=Tensor[(1, 64, 25, 5), float32] */;
  %36 = annotation.stop_fusion(%35) /* ty=Tensor[(1, 64, 25, 5), float32] */;
  %37 = transpose(%36, axes=[0, 2, 3, 1]) /* ty=Tensor[(1, 25, 5, 64), float32] */;
  %38 = add(%37, meta[relay.Constant][17] /* ty=Tensor[(64), float32] */ /* ty=Tensor[(64), float32] */) /* ty=Tensor[(1, 25, 5, 64), float32] */;
  %39 = multiply(%38, meta[relay.Constant][18] /* ty=Tensor[(64), float32] */ /* ty=Tensor[(64), float32] */) /* ty=Tensor[(1, 25, 5, 64), float32] */;
  %40 = add(%39, meta[relay.Constant][19] /* ty=Tensor[(64), float32] */ /* ty=Tensor[(64), float32] */) /* ty=Tensor[(1, 25, 5, 64), float32] */;
  %41 = nn.relu(%40) /* ty=Tensor[(1, 25, 5, 64), float32] */;
  %42 = transpose(%41, axes=[0, 3, 1, 2]) /* ty=Tensor[(1, 64, 25, 5), float32] */;
  %43 = nn.conv2d(%42, meta[relay.Constant][20] /* ty=Tensor[(64, 1, 3, 3), float32] */ /* ty=Tensor[(64, 1, 3, 3), float32] */, padding=[1, 1, 1, 1], groups=64, channels=64, kernel_size=[3, 3]) /* ty=Tensor[(1, 64, 25, 5), float32] */;
  %44 = annotation.stop_fusion(%43) /* ty=Tensor[(1, 64, 25, 5), float32] */;
  %45 = transpose(%44, axes=[0, 2, 3, 1]) /* ty=Tensor[(1, 25, 5, 64), float32] */;
  %46 = add(%45, meta[relay.Constant][21] /* ty=Tensor[(64), float32] */ /* ty=Tensor[(64), float32] */) /* ty=Tensor[(1, 25, 5, 64), float32] */;
  %47 = multiply(%46, meta[relay.Constant][22] /* ty=Tensor[(64), float32] */ /* ty=Tensor[(64), float32] */) /* ty=Tensor[(1, 25, 5, 64), float32] */;
  %48 = add(%47, meta[relay.Constant][23] /* ty=Tensor[(64), float32] */ /* ty=Tensor[(64), float32] */) /* ty=Tensor[(1, 25, 5, 64), float32] */;
  %49 = nn.relu(%48) /* ty=Tensor[(1, 25, 5, 64), float32] */;
  %50 = transpose(%49, axes=[0, 3, 1, 2]) /* ty=Tensor[(1, 64, 25, 5), float32] */;
  %51 = nn.conv2d(%50, meta[relay.Constant][24] /* ty=Tensor[(64, 64, 1, 1), float32] */ /* ty=Tensor[(64, 64, 1, 1), float32] */, padding=[0, 0, 0, 0], channels=64, kernel_size=[1, 1]) /* ty=Tensor[(1, 64, 25, 5), float32] */;
  %52 = annotation.stop_fusion(%51) /* ty=Tensor[(1, 64, 25, 5), float32] */;
  %53 = transpose(%52, axes=[0, 2, 3, 1]) /* ty=Tensor[(1, 25, 5, 64), float32] */;
  %54 = add(%53, meta[relay.Constant][25] /* ty=Tensor[(64), float32] */ /* ty=Tensor[(64), float32] */) /* ty=Tensor[(1, 25, 5, 64), float32] */;
  %55 = multiply(%54, meta[relay.Constant][26] /* ty=Tensor[(64), float32] */ /* ty=Tensor[(64), float32] */) /* ty=Tensor[(1, 25, 5, 64), float32] */;
  %56 = add(%55, meta[relay.Constant][27] /* ty=Tensor[(64), float32] */ /* ty=Tensor[(64), float32] */) /* ty=Tensor[(1, 25, 5, 64), float32] */;
  %57 = nn.relu(%56) /* ty=Tensor[(1, 25, 5, 64), float32] */;
  %58 = transpose(%57, axes=[0, 3, 1, 2]) /* ty=Tensor[(1, 64, 25, 5), float32] */;
  %59 = nn.conv2d(%58, meta[relay.Constant][28] /* ty=Tensor[(64, 1, 3, 3), float32] */ /* ty=Tensor[(64, 1, 3, 3), float32] */, padding=[1, 1, 1, 1], groups=64, channels=64, kernel_size=[3, 3]) /* ty=Tensor[(1, 64, 25, 5), float32] */;
  %60 = annotation.stop_fusion(%59) /* ty=Tensor[(1, 64, 25, 5), float32] */;
  %61 = transpose(%60, axes=[0, 2, 3, 1]) /* ty=Tensor[(1, 25, 5, 64), float32] */;
  %62 = add(%61, meta[relay.Constant][29] /* ty=Tensor[(64), float32] */ /* ty=Tensor[(64), float32] */) /* ty=Tensor[(1, 25, 5, 64), float32] */;
  %63 = multiply(%62, meta[relay.Constant][30] /* ty=Tensor[(64), float32] */ /* ty=Tensor[(64), float32] */) /* ty=Tensor[(1, 25, 5, 64), float32] */;
  %64 = add(%63, meta[relay.Constant][31] /* ty=Tensor[(64), float32] */ /* ty=Tensor[(64), float32] */) /* ty=Tensor[(1, 25, 5, 64), float32] */;
  %65 = nn.relu(%64) /* ty=Tensor[(1, 25, 5, 64), float32] */;
  %66 = transpose(%65, axes=[0, 3, 1, 2]) /* ty=Tensor[(1, 64, 25, 5), float32] */;
  %67 = multiply(%66, 32f /* ty=float32 */) /* ty=Tensor[(1, 64, 25, 5), float32] */;
  %68 = round(%67) /* ty=Tensor[(1, 64, 25, 5), float32] */;
  %69 = clip(%68, a_min=-127f, a_max=127f) /* ty=Tensor[(1, 64, 25, 5), float32] */;
  %70 = cast(%69, dtype="int8") /* ty=Tensor[(1, 64, 25, 5), int8] */;
  %71 = nn.conv2d(%70, meta[relay.Constant][32] /* ty=Tensor[(64, 64, 1, 1), int8] */ /* ty=Tensor[(64, 64, 1, 1), int8] */, padding=[0, 0, 0, 0], channels=64, kernel_size=[1, 1], out_dtype="int32") /* ty=Tensor[(1, 64, 25, 5), int32] */;
  %72 = add(%71, 64 /* ty=int32 */) /* ty=Tensor[(1, 64, 25, 5), int32] */;
  %73 = right_shift(%72, 7 /* ty=int32 */) /* ty=Tensor[(1, 64, 25, 5), int32] */;
  %74 = clip(%73, a_min=-127f, a_max=127f) /* ty=Tensor[(1, 64, 25, 5), int32] */;
  %75 = cast(%74, dtype="int8") /* ty=Tensor[(1, 64, 25, 5), int8] */;
  %76 = annotation.stop_fusion(%75) /* ty=Tensor[(1, 64, 25, 5), int8] */;
  %77 = cast(%76, dtype="float32") /* ty=Tensor[(1, 64, 25, 5), float32] */;
  %78 = multiply(%77, 0.03125f /* ty=float32 */) /* ty=Tensor[(1, 64, 25, 5), float32] */;
  %79 = transpose(%78, axes=[0, 2, 3, 1]) /* ty=Tensor[(1, 25, 5, 64), float32] */;
  %80 = add(%79, meta[relay.Constant][33] /* ty=Tensor[(64), float32] */ /* ty=Tensor[(64), float32] */) /* ty=Tensor[(1, 25, 5, 64), float32] */;
  %81 = multiply(%80, meta[relay.Constant][34] /* ty=Tensor[(64), float32] */ /* ty=Tensor[(64), float32] */) /* ty=Tensor[(1, 25, 5, 64), float32] */;
  %82 = add(%81, meta[relay.Constant][35] /* ty=Tensor[(64), float32] */ /* ty=Tensor[(64), float32] */) /* ty=Tensor[(1, 25, 5, 64), float32] */;
  %83 = nn.relu(%82) /* ty=Tensor[(1, 25, 5, 64), float32] */;
  %84 = transpose(%83, axes=[0, 3, 1, 2]) /* ty=Tensor[(1, 64, 25, 5), float32] */;
  %85 = nn.avg_pool2d(%84, pool_size=[25, 5], strides=[2, 2]) /* ty=Tensor[(1, 64, 1, 1), float32] */;
  %86 = transpose(%85, axes=[0, 2, 3, 1]) /* ty=Tensor[(1, 1, 1, 64), float32] */;
  %87 = squeeze(%86, axis=[1, 2]) /* ty=Tensor[(1, 64), float32] */;
  %88 = nn.dense(%87, meta[relay.Constant][36] /* ty=Tensor[(12, 64), float32] */ /* ty=Tensor[(12, 64), float32] */, units=12) /* ty=Tensor[(1, 12), float32] */;
  %89 = add(%88, meta[relay.Constant][37] /* ty=Tensor[(12), float32] */ /* ty=Tensor[(12), float32] */) /* ty=Tensor[(1, 12), float32] */;
  nn.softmax(%89) /* ty=Tensor[(1, 12), float32] */
}

METADATA:
{
  "root": 1, 
  "nodes": [
    {
      "type_key": ""
    }, 
    {
      "type_key": "StrMap", 
      "keys": [
        "relay.Constant"
      ], 
      "data": [2]
    }, 
    {
      "type_key": "Array", 
      "data": [
        3, 
        10, 
        14, 
        18, 
        22, 
        28, 
        32, 
        36, 
        40, 
        47, 
        51, 
        55, 
        59, 
        65, 
        69, 
        73, 
        77, 
        84, 
        88, 
        92, 
        96, 
        102, 
        106, 
        110, 
        114, 
        121, 
        125, 
        129, 
        133, 
        139, 
        143, 
        147, 
        151, 
        158, 
        162, 
        166, 
        170, 
        174
      ]
    }, 
    {
      "type_key": "relay.Constant", 
      "attrs": {
        "_checked_type_": "4", 
        "data": "0", 
        "span": "0"
      }
    }, 
    {
      "type_key": "relay.TensorType", 
      "attrs": {
        "dtype": "float32", 
        "shape": "5", 
        "span": "0"
      }
    }, 
    {
      "type_key": "Array", 
      "data": [6, 7, 8, 9]
    }, 
    {
      "type_key": "IntImm", 
      "attrs": {
        "dtype": "int32", 
        "value": "64"
      }
    }, 
    {
      "type_key": "IntImm", 
      "attrs": {
        "dtype": "int32", 
        "value": "1"
      }
    }, 
    {
      "type_key": "IntImm", 
      "attrs": {
        "dtype": "int32", 
        "value": "10"
      }
    }, 
    {
      "type_key": "IntImm", 
      "attrs": {
        "dtype": "int32", 
        "value": "4"
      }
    }, 
    {
      "type_key": "relay.Constant", 
      "attrs": {
        "_checked_type_": "11", 
        "data": "1", 
        "span": "0"
      }
    }, 
    {
      "type_key": "relay.TensorType", 
      "attrs": {
        "dtype": "float32", 
        "shape": "12", 
        "span": "0"
      }
    }, 
    {
      "type_key": "Array", 
      "data": [13]
    }, 
    {
      "type_key": "IntImm", 
      "attrs": {
        "dtype": "int32", 
        "value": "64"
      }
    }, 
    {
      "type_key": "relay.Constant", 
      "attrs": {
        "_checked_type_": "15", 
        "data": "2", 
        "span": "0"
      }
    }, 
    {
      "type_key": "relay.TensorType", 
      "attrs": {
        "dtype": "float32", 
        "shape": "16", 
        "span": "0"
      }
    }, 
    {
      "type_key": "Array", 
      "data": [17]
    }, 
    {
      "type_key": "IntImm", 
      "attrs": {
        "dtype": "int32", 
        "value": "64"
      }
    }, 
    {
      "type_key": "relay.Constant", 
      "attrs": {
        "_checked_type_": "19", 
        "data": "3", 
        "span": "0"
      }
    }, 
    {
      "type_key": "relay.TensorType", 
      "attrs": {
        "dtype": "float32", 
        "shape": "20", 
        "span": "0"
      }
    }, 
    {
      "type_key": "Array", 
      "data": [21]
    }, 
    {
      "type_key": "IntImm", 
      "attrs": {
        "dtype": "int32", 
        "value": "64"
      }
    }, 
    {
      "type_key": "relay.Constant", 
      "attrs": {
        "_checked_type_": "23", 
        "data": "4", 
        "span": "0"
      }
    }, 
    {
      "type_key": "relay.TensorType", 
      "attrs": {
        "dtype": "float32", 
        "shape": "24", 
        "span": "0"
      }
    }, 
    {
      "type_key": "Array", 
      "data": [6, 25, 26, 27]
    }, 
    {
      "type_key": "IntImm", 
      "attrs": {
        "dtype": "int32", 
        "value": "1"
      }
    }, 
    {
      "type_key": "IntImm", 
      "attrs": {
        "dtype": "int32", 
        "value": "3"
      }
    }, 
    {
      "type_key": "IntImm", 
      "attrs": {
        "dtype": "int32", 
        "value": "3"
      }
    }, 
    {
      "type_key": "relay.Constant", 
      "attrs": {
        "_checked_type_": "29", 
        "data": "5", 
        "span": "0"
      }
    }, 
    {
      "type_key": "relay.TensorType", 
      "attrs": {
        "dtype": "float32", 
        "shape": "30", 
        "span": "0"
      }
    }, 
    {
      "type_key": "Array", 
      "data": [31]
    }, 
    {
      "type_key": "IntImm", 
      "attrs": {
        "dtype": "int32", 
        "value": "64"
      }
    }, 
    {
      "type_key": "relay.Constant", 
      "attrs": {
        "_checked_type_": "33", 
        "data": "6", 
        "span": "0"
      }
    }, 
    {
      "type_key": "relay.TensorType", 
      "attrs": {
        "dtype": "float32", 
        "shape": "34", 
        "span": "0"
      }
    }, 
    {
      "type_key": "Array", 
      "data": [35]
    }, 
    {
      "type_key": "IntImm", 
      "attrs": {
        "dtype": "int32", 
        "value": "64"
      }
    }, 
    {
      "type_key": "relay.Constant", 
      "attrs": {
        "_checked_type_": "37", 
        "data": "7", 
        "span": "0"
      }
    }, 
    {
      "type_key": "relay.TensorType", 
      "attrs": {
        "dtype": "float32", 
        "shape": "38", 
        "span": "0"
      }
    }, 
    {
      "type_key": "Array", 
      "data": [39]
    }, 
    {
      "type_key": "IntImm", 
      "attrs": {
        "dtype": "int32", 
        "value": "64"
      }
    }, 
    {
      "type_key": "relay.Constant", 
      "attrs": {
        "_checked_type_": "41", 
        "data": "8", 
        "span": "0"
      }
    }, 
    {
      "type_key": "relay.TensorType", 
      "attrs": {
        "dtype": "float32", 
        "shape": "42", 
        "span": "0"
      }
    }, 
    {
      "type_key": "Array", 
      "data": [43, 44, 45, 46]
    }, 
    {
      "type_key": "IntImm", 
      "attrs": {
        "dtype": "int32", 
        "value": "64"
      }
    }, 
    {
      "type_key": "IntImm", 
      "attrs": {
        "dtype": "int32", 
        "value": "64"
      }
    }, 
    {
      "type_key": "IntImm", 
      "attrs": {
        "dtype": "int32", 
        "value": "1"
      }
    }, 
    {
      "type_key": "IntImm", 
      "attrs": {
        "dtype": "int32", 
        "value": "1"
      }
    }, 
    {
      "type_key": "relay.Constant", 
      "attrs": {
        "_checked_type_": "48", 
        "data": "9", 
        "span": "0"
      }
    }, 
    {
      "type_key": "relay.TensorType", 
      "attrs": {
        "dtype": "float32", 
        "shape": "49", 
        "span": "0"
      }
    }, 
    {
      "type_key": "Array", 
      "data": [50]
    }, 
    {
      "type_key": "IntImm", 
      "attrs": {
        "dtype": "int32", 
        "value": "64"
      }
    }, 
    {
      "type_key": "relay.Constant", 
      "attrs": {
        "_checked_type_": "52", 
        "data": "10", 
        "span": "0"
      }
    }, 
    {
      "type_key": "relay.TensorType", 
      "attrs": {
        "dtype": "float32", 
        "shape": "53", 
        "span": "0"
      }
    }, 
    {
      "type_key": "Array", 
      "data": [54]
    }, 
    {
      "type_key": "IntImm", 
      "attrs": {
        "dtype": "int32", 
        "value": "64"
      }
    }, 
    {
      "type_key": "relay.Constant", 
      "attrs": {
        "_checked_type_": "56", 
        "data": "11", 
        "span": "0"
      }
    }, 
    {
      "type_key": "relay.TensorType", 
      "attrs": {
        "dtype": "float32", 
        "shape": "57", 
        "span": "0"
      }
    }, 
    {
      "type_key": "Array", 
      "data": [58]
    }, 
    {
      "type_key": "IntImm", 
      "attrs": {
        "dtype": "int32", 
        "value": "64"
      }
    }, 
    {
      "type_key": "relay.Constant", 
      "attrs": {
        "_checked_type_": "60", 
        "data": "12", 
        "span": "0"
      }
    }, 
    {
      "type_key": "relay.TensorType", 
      "attrs": {
        "dtype": "float32", 
        "shape": "61", 
        "span": "0"
      }
    }, 
    {
      "type_key": "Array", 
      "data": [43, 62, 63, 64]
    }, 
    {
      "type_key": "IntImm", 
      "attrs": {
        "dtype": "int32", 
        "value": "1"
      }
    }, 
    {
      "type_key": "IntImm", 
      "attrs": {
        "dtype": "int32", 
        "value": "3"
      }
    }, 
    {
      "type_key": "IntImm", 
      "attrs": {
        "dtype": "int32", 
        "value": "3"
      }
    }, 
    {
      "type_key": "relay.Constant", 
      "attrs": {
        "_checked_type_": "66", 
        "data": "13", 
        "span": "0"
      }
    }, 
    {
      "type_key": "relay.TensorType", 
      "attrs": {
        "dtype": "float32", 
        "shape": "67", 
        "span": "0"
      }
    }, 
    {
      "type_key": "Array", 
      "data": [68]
    }, 
    {
      "type_key": "IntImm", 
      "attrs": {
        "dtype": "int32", 
        "value": "64"
      }
    }, 
    {
      "type_key": "relay.Constant", 
      "attrs": {
        "_checked_type_": "70", 
        "data": "14", 
        "span": "0"
      }
    }, 
    {
      "type_key": "relay.TensorType", 
      "attrs": {
        "dtype": "float32", 
        "shape": "71", 
        "span": "0"
      }
    }, 
    {
      "type_key": "Array", 
      "data": [72]
    }, 
    {
      "type_key": "IntImm", 
      "attrs": {
        "dtype": "int32", 
        "value": "64"
      }
    }, 
    {
      "type_key": "relay.Constant", 
      "attrs": {
        "_checked_type_": "74", 
        "data": "15", 
        "span": "0"
      }
    }, 
    {
      "type_key": "relay.TensorType", 
      "attrs": {
        "dtype": "float32", 
        "shape": "75", 
        "span": "0"
      }
    }, 
    {
      "type_key": "Array", 
      "data": [76]
    }, 
    {
      "type_key": "IntImm", 
      "attrs": {
        "dtype": "int32", 
        "value": "64"
      }
    }, 
    {
      "type_key": "relay.Constant", 
      "attrs": {
        "_checked_type_": "78", 
        "data": "16", 
        "span": "0"
      }
    }, 
    {
      "type_key": "relay.TensorType", 
      "attrs": {
        "dtype": "float32", 
        "shape": "79", 
        "span": "0"
      }
    }, 
    {
      "type_key": "Array", 
      "data": [80, 81, 82, 83]
    }, 
    {
      "type_key": "IntImm", 
      "attrs": {
        "dtype": "int32", 
        "value": "64"
      }
    }, 
    {
      "type_key": "IntImm", 
      "attrs": {
        "dtype": "int32", 
        "value": "64"
      }
    }, 
    {
      "type_key": "IntImm", 
      "attrs": {
        "dtype": "int32", 
        "value": "1"
      }
    }, 
    {
      "type_key": "IntImm", 
      "attrs": {
        "dtype": "int32", 
        "value": "1"
      }
    }, 
    {
      "type_key": "relay.Constant", 
      "attrs": {
        "_checked_type_": "85", 
        "data": "17", 
        "span": "0"
      }
    }, 
    {
      "type_key": "relay.TensorType", 
      "attrs": {
        "dtype": "float32", 
        "shape": "86", 
        "span": "0"
      }
    }, 
    {
      "type_key": "Array", 
      "data": [87]
    }, 
    {
      "type_key": "IntImm", 
      "attrs": {
        "dtype": "int32", 
        "value": "64"
      }
    }, 
    {
      "type_key": "relay.Constant", 
      "attrs": {
        "_checked_type_": "89", 
        "data": "18", 
        "span": "0"
      }
    }, 
    {
      "type_key": "relay.TensorType", 
      "attrs": {
        "dtype": "float32", 
        "shape": "90", 
        "span": "0"
      }
    }, 
    {
      "type_key": "Array", 
      "data": [91]
    }, 
    {
      "type_key": "IntImm", 
      "attrs": {
        "dtype": "int32", 
        "value": "64"
      }
    }, 
    {
      "type_key": "relay.Constant", 
      "attrs": {
        "_checked_type_": "93", 
        "data": "19", 
        "span": "0"
      }
    }, 
    {
      "type_key": "relay.TensorType", 
      "attrs": {
        "dtype": "float32", 
        "shape": "94", 
        "span": "0"
      }
    }, 
    {
      "type_key": "Array", 
      "data": [95]
    }, 
    {
      "type_key": "IntImm", 
      "attrs": {
        "dtype": "int32", 
        "value": "64"
      }
    }, 
    {
      "type_key": "relay.Constant", 
      "attrs": {
        "_checked_type_": "97", 
        "data": "20", 
        "span": "0"
      }
    }, 
    {
      "type_key": "relay.TensorType", 
      "attrs": {
        "dtype": "float32", 
        "shape": "98", 
        "span": "0"
      }
    }, 
    {
      "type_key": "Array", 
      "data": [80, 99, 100, 101]
    }, 
    {
      "type_key": "IntImm", 
      "attrs": {
        "dtype": "int32", 
        "value": "1"
      }
    }, 
    {
      "type_key": "IntImm", 
      "attrs": {
        "dtype": "int32", 
        "value": "3"
      }
    }, 
    {
      "type_key": "IntImm", 
      "attrs": {
        "dtype": "int32", 
        "value": "3"
      }
    }, 
    {
      "type_key": "relay.Constant", 
      "attrs": {
        "_checked_type_": "103", 
        "data": "21", 
        "span": "0"
      }
    }, 
    {
      "type_key": "relay.TensorType", 
      "attrs": {
        "dtype": "float32", 
        "shape": "104", 
        "span": "0"
      }
    }, 
    {
      "type_key": "Array", 
      "data": [105]
    }, 
    {
      "type_key": "IntImm", 
      "attrs": {
        "dtype": "int32", 
        "value": "64"
      }
    }, 
    {
      "type_key": "relay.Constant", 
      "attrs": {
        "_checked_type_": "107", 
        "data": "22", 
        "span": "0"
      }
    }, 
    {
      "type_key": "relay.TensorType", 
      "attrs": {
        "dtype": "float32", 
        "shape": "108", 
        "span": "0"
      }
    }, 
    {
      "type_key": "Array", 
      "data": [109]
    }, 
    {
      "type_key": "IntImm", 
      "attrs": {
        "dtype": "int32", 
        "value": "64"
      }
    }, 
    {
      "type_key": "relay.Constant", 
      "attrs": {
        "_checked_type_": "111", 
        "data": "23", 
        "span": "0"
      }
    }, 
    {
      "type_key": "relay.TensorType", 
      "attrs": {
        "dtype": "float32", 
        "shape": "112", 
        "span": "0"
      }
    }, 
    {
      "type_key": "Array", 
      "data": [113]
    }, 
    {
      "type_key": "IntImm", 
      "attrs": {
        "dtype": "int32", 
        "value": "64"
      }
    }, 
    {
      "type_key": "relay.Constant", 
      "attrs": {
        "_checked_type_": "115", 
        "data": "24", 
        "span": "0"
      }
    }, 
    {
      "type_key": "relay.TensorType", 
      "attrs": {
        "dtype": "float32", 
        "shape": "116", 
        "span": "0"
      }
    }, 
    {
      "type_key": "Array", 
      "data": [117, 118, 119, 120]
    }, 
    {
      "type_key": "IntImm", 
      "attrs": {
        "dtype": "int32", 
        "value": "64"
      }
    }, 
    {
      "type_key": "IntImm", 
      "attrs": {
        "dtype": "int32", 
        "value": "64"
      }
    }, 
    {
      "type_key": "IntImm", 
      "attrs": {
        "dtype": "int32", 
        "value": "1"
      }
    }, 
    {
      "type_key": "IntImm", 
      "attrs": {
        "dtype": "int32", 
        "value": "1"
      }
    }, 
    {
      "type_key": "relay.Constant", 
      "attrs": {
        "_checked_type_": "122", 
        "data": "25", 
        "span": "0"
      }
    }, 
    {
      "type_key": "relay.TensorType", 
      "attrs": {
        "dtype": "float32", 
        "shape": "123", 
        "span": "0"
      }
    }, 
    {
      "type_key": "Array", 
      "data": [124]
    }, 
    {
      "type_key": "IntImm", 
      "attrs": {
        "dtype": "int32", 
        "value": "64"
      }
    }, 
    {
      "type_key": "relay.Constant", 
      "attrs": {
        "_checked_type_": "126", 
        "data": "26", 
        "span": "0"
      }
    }, 
    {
      "type_key": "relay.TensorType", 
      "attrs": {
        "dtype": "float32", 
        "shape": "127", 
        "span": "0"
      }
    }, 
    {
      "type_key": "Array", 
      "data": [128]
    }, 
    {
      "type_key": "IntImm", 
      "attrs": {
        "dtype": "int32", 
        "value": "64"
      }
    }, 
    {
      "type_key": "relay.Constant", 
      "attrs": {
        "_checked_type_": "130", 
        "data": "27", 
        "span": "0"
      }
    }, 
    {
      "type_key": "relay.TensorType", 
      "attrs": {
        "dtype": "float32", 
        "shape": "131", 
        "span": "0"
      }
    }, 
    {
      "type_key": "Array", 
      "data": [132]
    }, 
    {
      "type_key": "IntImm", 
      "attrs": {
        "dtype": "int32", 
        "value": "64"
      }
    }, 
    {
      "type_key": "relay.Constant", 
      "attrs": {
        "_checked_type_": "134", 
        "data": "28", 
        "span": "0"
      }
    }, 
    {
      "type_key": "relay.TensorType", 
      "attrs": {
        "dtype": "float32", 
        "shape": "135", 
        "span": "0"
      }
    }, 
    {
      "type_key": "Array", 
      "data": [117, 136, 137, 138]
    }, 
    {
      "type_key": "IntImm", 
      "attrs": {
        "dtype": "int32", 
        "value": "1"
      }
    }, 
    {
      "type_key": "IntImm", 
      "attrs": {
        "dtype": "int32", 
        "value": "3"
      }
    }, 
    {
      "type_key": "IntImm", 
      "attrs": {
        "dtype": "int32", 
        "value": "3"
      }
    }, 
    {
      "type_key": "relay.Constant", 
      "attrs": {
        "_checked_type_": "140", 
        "data": "29", 
        "span": "0"
      }
    }, 
    {
      "type_key": "relay.TensorType", 
      "attrs": {
        "dtype": "float32", 
        "shape": "141", 
        "span": "0"
      }
    }, 
    {
      "type_key": "Array", 
      "data": [142]
    }, 
    {
      "type_key": "IntImm", 
      "attrs": {
        "dtype": "int32", 
        "value": "64"
      }
    }, 
    {
      "type_key": "relay.Constant", 
      "attrs": {
        "_checked_type_": "144", 
        "data": "30", 
        "span": "0"
      }
    }, 
    {
      "type_key": "relay.TensorType", 
      "attrs": {
        "dtype": "float32", 
        "shape": "145", 
        "span": "0"
      }
    }, 
    {
      "type_key": "Array", 
      "data": [146]
    }, 
    {
      "type_key": "IntImm", 
      "attrs": {
        "dtype": "int32", 
        "value": "64"
      }
    }, 
    {
      "type_key": "relay.Constant", 
      "attrs": {
        "_checked_type_": "148", 
        "data": "31", 
        "span": "0"
      }
    }, 
    {
      "type_key": "relay.TensorType", 
      "attrs": {
        "dtype": "float32", 
        "shape": "149", 
        "span": "0"
      }
    }, 
    {
      "type_key": "Array", 
      "data": [150]
    }, 
    {
      "type_key": "IntImm", 
      "attrs": {
        "dtype": "int32", 
        "value": "64"
      }
    }, 
    {
      "type_key": "relay.Constant", 
      "attrs": {
        "_checked_type_": "152", 
        "data": "32", 
        "span": "0"
      }
    }, 
    {
      "type_key": "relay.TensorType", 
      "attrs": {
        "dtype": "int8", 
        "shape": "153", 
        "span": "0"
      }
    }, 
    {
      "type_key": "Array", 
      "data": [154, 155, 156, 157]
    }, 
    {
      "type_key": "IntImm", 
      "attrs": {
        "dtype": "int32", 
        "value": "64"
      }
    }, 
    {
      "type_key": "IntImm", 
      "attrs": {
        "dtype": "int32", 
        "value": "64"
      }
    }, 
    {
      "type_key": "IntImm", 
      "attrs": {
        "dtype": "int32", 
        "value": "1"
      }
    }, 
    {
      "type_key": "IntImm", 
      "attrs": {
        "dtype": "int32", 
        "value": "1"
      }
    }, 
    {
      "type_key": "relay.Constant", 
      "attrs": {
        "_checked_type_": "159", 
        "data": "33", 
        "span": "0"
      }
    }, 
    {
      "type_key": "relay.TensorType", 
      "attrs": {
        "dtype": "float32", 
        "shape": "160", 
        "span": "0"
      }
    }, 
    {
      "type_key": "Array", 
      "data": [161]
    }, 
    {
      "type_key": "IntImm", 
      "attrs": {
        "dtype": "int32", 
        "value": "64"
      }
    }, 
    {
      "type_key": "relay.Constant", 
      "attrs": {
        "_checked_type_": "163", 
        "data": "34", 
        "span": "0"
      }
    }, 
    {
      "type_key": "relay.TensorType", 
      "attrs": {
        "dtype": "float32", 
        "shape": "164", 
        "span": "0"
      }
    }, 
    {
      "type_key": "Array", 
      "data": [165]
    }, 
    {
      "type_key": "IntImm", 
      "attrs": {
        "dtype": "int32", 
        "value": "64"
      }
    }, 
    {
      "type_key": "relay.Constant", 
      "attrs": {
        "_checked_type_": "167", 
        "data": "35", 
        "span": "0"
      }
    }, 
    {
      "type_key": "relay.TensorType", 
      "attrs": {
        "dtype": "float32", 
        "shape": "168", 
        "span": "0"
      }
    }, 
    {
      "type_key": "Array", 
      "data": [169]
    }, 
    {
      "type_key": "IntImm", 
      "attrs": {
        "dtype": "int32", 
        "value": "64"
      }
    }, 
    {
      "type_key": "relay.Constant", 
      "attrs": {
        "_checked_type_": "171", 
        "data": "36", 
        "span": "0"
      }
    }, 
    {
      "type_key": "relay.TensorType", 
      "attrs": {
        "dtype": "float32", 
        "shape": "172", 
        "span": "0"
      }
    }, 
    {
      "type_key": "Array", 
      "data": [173, 154]
    }, 
    {
      "type_key": "IntImm", 
      "attrs": {
        "dtype": "int32", 
        "value": "12"
      }
    }, 
    {
      "type_key": "relay.Constant", 
      "attrs": {
        "_checked_type_": "175", 
        "data": "37", 
        "span": "0"
      }
    }, 
    {
      "type_key": "relay.TensorType", 
      "attrs": {
        "dtype": "float32", 
        "shape": "176", 
        "span": "0"
      }
    }, 
    {
      "type_key": "Array", 
      "data": [177]
    }, 
    {
      "type_key": "IntImm", 
      "attrs": {
        "dtype": "int32", 
        "value": "12"
      }
    }
  ], 
  "b64ndarrays": [
    "…", 
    "…", 
    "…", 
    "…", 
    "…", 
    "…", 
    "…", 
    "…", 
    "…", 
    "…", 
    "…", 
    "…", 
    "…", 
    "…", 
    "…", 
    "…", 
    "…", 
    "…", 
    "…", 
    "…", 
    "…", 
    "…", 
    "…", 
    "…", 
    "…", 
    "…", 
    "…", 
    "…", 
    "…", 
    "…", 
    "…", 
    "…", 
    "…", 
    "…", 
    "…", 
    "…", 
    "…", 
    "P6G0lvBAXt0AAAAAAAAAAAEAAAAAAAAAAQAAAAIgAQAMAAAAAAAAADAAAAAAAAAA2BsIPuhoED3xFoS9QmihvI03bDxAcGW7+yO1uy7Pk7xs8xo77Bk2vR2bfjszqgy7"
  ], 
  "attrs": {"tvm_version": "0.7.dev1"}
}